…
[05/09 21:28:52][INFO][traindl.py:  70]: ds = <data.traindl.TrainDS object at 0x7fe3e0a9de80> is_oversampling = True
[05/09 21:28:52][INFO][traindl.py:  70]: ds = <data.traindl.TrainDS object at 0x7fe3e0a9d040> is_oversampling = False
[05/09 21:28:52][INFO][traindl.py:  51]: TRAIN: NWORKERS 1 CPU_COUNT 40 , 
[05/09 21:28:52][INFO][_nets.py: 115]: NETWORK rtfm created
[05/09 21:28:52][INFO][_nets.py: 116]: 
cfg_net
CLS_VERSION: MLP

cfg_cls
ACTIVA: relu
DO: 0.7
NEURONS:
- 512
- 32

[05/09 21:28:52][INFO][_nets.py: 119]: rtfm Conv/Linear -> weights~xavier , bias~0
[05/09 21:28:52][INFO][_nets.py: 121]: Net structure: RTFM(
  (aggregate): Aggregate(
    (conv_1): Sequential(
      (0): Conv1d(1024, 256, kernel_size=(3,), stride=(1,), padding=(1,))
      (1): ReLU()
      (2): BatchNorm1d(256, eps=1e-05, momentum=0.1, affine=True, track_running_stats=True)
    )
    (conv_2): Sequential(
      (0): Conv1d(1024, 256, kernel_size=(3,), stride=(1,), padding=(2,), dilation=(2,))
      (1): ReLU()
      (2): BatchNorm1d(256, eps=1e-05, momentum=0.1, affine=True, track_running_stats=True)
    )
    (conv_3): Sequential(
      (0): Conv1d(1024, 256, kernel_size=(3,), stride=(1,), padding=(4,), dilation=(4,))
      (1): ReLU()
      (2): BatchNorm1d(256, eps=1e-05, momentum=0.1, affine=True, track_running_stats=True)
    )
    (conv_4): Sequential(
      (0): Conv1d(1024, 256, kernel_size=(1,), stride=(1,), bias=False)
      (1): ReLU()
    )
    (conv_5): Sequential(
      (0): Conv1d(1024, 1024, kernel_size=(3,), stride=(1,), padding=(1,), bias=False)
      (1): ReLU()
      (2): BatchNorm1d(1024, eps=1e-05, momentum=0.1, affine=True, track_running_stats=True)
    )
    (non_local): NONLocalBlock1D(
      (g): Conv1d(256, 128, kernel_size=(1,), stride=(1,))
      (W): Sequential(
        (0): Conv1d(128, 256, kernel_size=(1,), stride=(1,))
        (1): BatchNorm1d(256, eps=1e-05, momentum=0.1, affine=True, track_running_stats=True)
      )
      (theta): Conv1d(256, 128, kernel_size=(1,), stride=(1,))
      (phi): Conv1d(256, 128, kernel_size=(1,), stride=(1,))
    )
  )
  (do): Dropout(p=0.7, inplace=False)
  (slcls): MLP(
    (cls): Sequential(
      (0): Linear(in_features=1024, out_features=512, bias=True)
      (1): ReLU()
      (2): Dropout(p=0.7, inplace=False)
      (3): Linear(in_features=512, out_features=32, bias=True)
      (4): Dropout(p=0.7, inplace=False)
      (5): Linear(in_features=32, out_features=1, bias=True)
      (6): Sigmoid()
    )
  )
)


[05/09 21:28:58][DEBUG][rtfm.py:  34]: RTFM/x torch.Size([2, 32, 1024])
[05/09 21:28:58][DEBUG][embdenhc.py: 218]: Aggregate/x torch.Size([2, 1024, 32])
[05/09 21:28:58][DEBUG][embdenhc.py: 223]: Aggregate/conv_123 (torch.Size([2, 256, 32]), torch.Size([2, 256, 32]), torch.Size([2, 256, 32]))
[05/09 21:28:58][DEBUG][embdenhc.py: 225]: Aggregate/conv_fl123-cat torch.Size([2, 768, 32])
…
[05/09 22:06:01][INFO][traindl.py:  70]: ds = <data.traindl.TrainDS object at 0x7ff6c33f1ee0> is_oversampling = True
[05/09 22:06:01][INFO][traindl.py:  70]: ds = <data.traindl.TrainDS object at 0x7ff6c33f1a60> is_oversampling = False
[05/09 22:06:01][INFO][traindl.py:  51]: TRAIN: NWORKERS 1 CPU_COUNT 40 , 
[05/09 22:06:01][INFO][_nets.py: 118]: NETWORK rtfm created
[05/09 22:06:01][INFO][_nets.py: 119]: 
cfg_net
CLS_VRS: CONV

cfg_cls
KS: 7

[05/09 22:06:01][INFO][_nets.py: 122]: rtfm Conv/Linear -> weights~xavier , bias~0
[05/09 22:06:01][INFO][_nets.py: 124]: Net structure: RTFM(
  (aggregate): Aggregate(
    (conv_1): Sequential(
      (0): Conv1d(1024, 256, kernel_size=(3,), stride=(1,), padding=(1,))
      (1): ReLU()
      (2): BatchNorm1d(256, eps=1e-05, momentum=0.1, affine=True, track_running_stats=True)
    )
    (conv_2): Sequential(
      (0): Conv1d(1024, 256, kernel_size=(3,), stride=(1,), padding=(2,), dilation=(2,))
      (1): ReLU()
      (2): BatchNorm1d(256, eps=1e-05, momentum=0.1, affine=True, track_running_stats=True)
    )
    (conv_3): Sequential(
      (0): Conv1d(1024, 256, kernel_size=(3,), stride=(1,), padding=(4,), dilation=(4,))
      (1): ReLU()
      (2): BatchNorm1d(256, eps=1e-05, momentum=0.1, affine=True, track_running_stats=True)
    )
    (conv_4): Sequential(
      (0): Conv1d(1024, 256, kernel_size=(1,), stride=(1,), bias=False)
      (1): ReLU()
    )
    (conv_5): Sequential(
      (0): Conv1d(1024, 1024, kernel_size=(3,), stride=(1,), padding=(1,), bias=False)
      (1): ReLU()
      (2): BatchNorm1d(1024, eps=1e-05, momentum=0.1, affine=True, track_running_stats=True)
    )
    (non_local): NONLocalBlock1D(
      (g): Conv1d(256, 128, kernel_size=(1,), stride=(1,))
      (W): Sequential(
        (0): Conv1d(128, 256, kernel_size=(1,), stride=(1,))
        (1): BatchNorm1d(256, eps=1e-05, momentum=0.1, affine=True, track_running_stats=True)
      )
      (theta): Conv1d(256, 128, kernel_size=(1,), stride=(1,))
      (phi): Conv1d(256, 128, kernel_size=(1,), stride=(1,))
    )
  )
  (do): Dropout(p=0.7, inplace=False)
  (sig): Sigmoid()
  (slcls): ConvCLS(
    (cls): Conv1d(1024, 1, kernel_size=(7,), stride=(1,))
  )
)


[05/09 22:06:08][DEBUG][rtfm.py:  33]: RTFM/x torch.Size([2, 32, 1024])
[05/09 22:06:08][DEBUG][embdenhc.py: 228]: Aggregate/x torch.Size([2, 1024, 32])
[05/09 22:06:08][DEBUG][embdenhc.py: 233]: Aggregate/conv_123 (torch.Size([2, 256, 32]), torch.Size([2, 256, 32]), torch.Size([2, 256, 32]))
[05/09 22:06:08][DEBUG][embdenhc.py: 235]: Aggregate/conv_fl123-cat torch.Size([2, 768, 32])
…
[05/09 22:14:33][INFO][traindl.py:  70]: ds = <data.traindl.TrainDS object at 0x7feceba09ac0> is_oversampling = True
[05/09 22:14:33][INFO][traindl.py:  70]: ds = <data.traindl.TrainDS object at 0x7feceba04730> is_oversampling = False
[05/09 22:14:33][INFO][traindl.py:  51]: TRAIN: NWORKERS 1 CPU_COUNT 40 , 
[05/09 22:14:33][INFO][_nets.py: 118]: NETWORK rtfm created
[05/09 22:14:33][INFO][_nets.py: 119]: 
cfg_net
CLS_VRS: CONV

cfg_cls
KS: 5

[05/09 22:14:33][INFO][_nets.py: 122]: rtfm Conv/Linear -> weights~xavier , bias~0
[05/09 22:14:33][INFO][_nets.py: 124]: Net structure: RTFM(
  (aggregate): Aggregate(
    (conv_1): Sequential(
      (0): Conv1d(1024, 256, kernel_size=(3,), stride=(1,), padding=(1,))
      (1): ReLU()
      (2): BatchNorm1d(256, eps=1e-05, momentum=0.1, affine=True, track_running_stats=True)
    )
    (conv_2): Sequential(
      (0): Conv1d(1024, 256, kernel_size=(3,), stride=(1,), padding=(2,), dilation=(2,))
      (1): ReLU()
      (2): BatchNorm1d(256, eps=1e-05, momentum=0.1, affine=True, track_running_stats=True)
    )
    (conv_3): Sequential(
      (0): Conv1d(1024, 256, kernel_size=(3,), stride=(1,), padding=(4,), dilation=(4,))
      (1): ReLU()
      (2): BatchNorm1d(256, eps=1e-05, momentum=0.1, affine=True, track_running_stats=True)
    )
    (conv_4): Sequential(
      (0): Conv1d(1024, 256, kernel_size=(1,), stride=(1,), bias=False)
      (1): ReLU()
    )
    (conv_5): Sequential(
      (0): Conv1d(1024, 1024, kernel_size=(3,), stride=(1,), padding=(1,), bias=False)
      (1): ReLU()
      (2): BatchNorm1d(1024, eps=1e-05, momentum=0.1, affine=True, track_running_stats=True)
    )
    (non_local): NONLocalBlock1D(
      (g): Conv1d(256, 128, kernel_size=(1,), stride=(1,))
      (W): Sequential(
        (0): Conv1d(128, 256, kernel_size=(1,), stride=(1,))
        (1): BatchNorm1d(256, eps=1e-05, momentum=0.1, affine=True, track_running_stats=True)
      )
      (theta): Conv1d(256, 128, kernel_size=(1,), stride=(1,))
      (phi): Conv1d(256, 128, kernel_size=(1,), stride=(1,))
    )
  )
  (do): Dropout(p=0.7, inplace=False)
  (sig): Sigmoid()
  (slcls): ConvCLS(
    (cls): Conv1d(1024, 1, kernel_size=(5,), stride=(1,))
  )
)


[05/09 22:14:40][DEBUG][rtfm.py:  33]: RTFM/x torch.Size([2, 32, 1024])
[05/09 22:14:40][DEBUG][embdenhc.py: 228]: Aggregate/x torch.Size([2, 1024, 32])
[05/09 22:14:40][DEBUG][embdenhc.py: 233]: Aggregate/conv_123 (torch.Size([2, 256, 32]), torch.Size([2, 256, 32]), torch.Size([2, 256, 32]))
[05/09 22:14:40][DEBUG][embdenhc.py: 235]: Aggregate/conv_fl123-cat torch.Size([2, 768, 32])
…
