…
[05/14 19:32:14][INFO][tmp.py:  38]: 

rtfm


[05/14 19:32:14][ERROR][_nets.py:  40]: exp .tmp.yml ??
[05/14 19:32:14][WARNING][_nets.py:  41]: using cfg.DATA.RGB/AUD.NFEATURES to be 1024/128
[05/14 19:32:14][INFO][_nets.py: 108]: 1024 rgbnf
[05/14 19:32:14][INFO][_nets.py: 108]: CLS_VRS: CONV cfg_net
[05/14 19:32:14][INFO][_nets.py: 108]: KS: 5 cfg_cls
[05/14 19:32:14][INFO][_nets.py: 163]: NETWORK rtfm created
[05/14 19:32:14][INFO][_nets.py: 164]: 
cfg_net
CLS_VRS: CONV

cfg_cls
KS: 5

[05/14 19:32:14][INFO][_nets.py: 170]: Net structure: RTFM(
  (aggregate): Aggregate(
    (conv_1): Sequential(
      (0): Conv1d(1024, 256, kernel_size=(3,), stride=(1,), padding=(1,))
      (1): ReLU()
      (2): BatchNorm1d(256, eps=1e-05, momentum=0.1, affine=True, track_running_stats=True)
    )
    (conv_2): Sequential(
      (0): Conv1d(1024, 256, kernel_size=(3,), stride=(1,), padding=(2,), dilation=(2,))
      (1): ReLU()
      (2): BatchNorm1d(256, eps=1e-05, momentum=0.1, affine=True, track_running_stats=True)
    )
    (conv_3): Sequential(
      (0): Conv1d(1024, 256, kernel_size=(3,), stride=(1,), padding=(4,), dilation=(4,))
      (1): ReLU()
      (2): BatchNorm1d(256, eps=1e-05, momentum=0.1, affine=True, track_running_stats=True)
    )
    (conv_4): Sequential(
      (0): Conv1d(1024, 256, kernel_size=(1,), stride=(1,), bias=False)
      (1): ReLU()
    )
    (conv_5): Sequential(
      (0): Conv1d(1024, 1024, kernel_size=(3,), stride=(1,), padding=(1,), bias=False)
      (1): ReLU()
      (2): BatchNorm1d(1024, eps=1e-05, momentum=0.1, affine=True, track_running_stats=True)
    )
    (non_local): NONLocalBlock1D(
      (g): Conv1d(256, 128, kernel_size=(1,), stride=(1,))
      (W): Sequential(
        (0): Conv1d(128, 256, kernel_size=(1,), stride=(1,))
        (1): BatchNorm1d(256, eps=1e-05, momentum=0.1, affine=True, track_running_stats=True)
      )
      (theta): Conv1d(256, 128, kernel_size=(1,), stride=(1,))
      (phi): Conv1d(256, 128, kernel_size=(1,), stride=(1,))
    )
  )
  (do): Dropout(p=0.7, inplace=False)
  (sig): Sigmoid()
  (slcls): ConvCLS(
    (cls): Conv1d(1024, 1, kernel_size=(5,), stride=(1,))
  )
)


[05/14 19:32:41][INFO][setup.py:  52]: 
*******
 ********
33344333
 ********
******
[05/14 19:32:41][INFO][setup.py:  55]: cfg:
DATA:
  AUD:
    ENABLE: false
    L2N: 0
    NFEATURES: 0
    SEGMENTNFRAMES: 16
  CROPASVIDEO: false
  LOADIN2MEM: false
  NWORKERS: 1
  PERSISTWRK: true
  PINMEM: true
  RGB:
    L2N: 0
    NCROPS: 2
    NFEATURES: 0
    SEGMENTNFRAMES: 16
…
